Application/app/src/main/assets/tf_svm_model.tflite (tflite, 1572 bytes, 2 tensors)

sequential_6/dense_6/BiasAdd/ReadVariableOp f4 [3]
00000000: 5b72 ac3b e8e4 7fbc 0f86 03ba
0.0052626557 -0.01561854 -0.00050172297

sequential_6/dense_6/MatMul f4 [3, 40]
00000000: 35d8 0d3c e48f e8bc 3e3c 87bd dfbb 383d
00000010: d5de f13c d4af ae3d e916 1a3e 732f ae3d
00000020: 4814 15bd ed6b 86bd c02a b3bc 2973 2b3d
00000030: 69c3 a8bc 97f6 21bc 0a8c 97bc b64b ffbb
00000040: a941 f9ba 11bc f8bb a8a6 62bd 9b6d e93c
00000050: 6017 e3bc cd41 1fbd 5012 823d 88aa 20bd
00000060: a078 1ebc 70f1 50bc f135 4bbd 0cea c33c
00000070: 8fd1 85bd df52 0e3d af97 44bb d806 493d
00000080: ce4c ddbb b302 cb3c 4556 5c3d 351d 8f3d
00000090: c473 0bbd dbb8 353c d6c4 46bd 6f70 493c
000000a0: 41db a1bb f443 13bc 4167 27bb 7c6d a33c
000000b0: 2299 36bd de50 01be 514b 08be 9217 01bd
000000c0: 4147 e03d 1aa8 9e3d 0bc5 9f3c aa50 35bd
000000d0: 2c70 2d3d 32d0 063d 29f7 c0ba fb92 07ba
000000e0: 2ab3 683b a71c 583d 27ed 523d 5357 37bc
000000f0: 829b 2cbb 1d23 d03c dd28 bdbd 13a1 753d
00000100: 543c 92bd 8dbd 05bd a5b4 103d b1f5 06bd
00000110: 0ea4 c13d 7e2a 6dbc f6f1 0ebd 8e78 20bd
00000120: 5950 2bbc de47 133b d603 45bd ee8d 70bd
00000130: 9443 c63c 11cd c53a da04 0e3d ddab 45bd
00000140: 31a3 aabb 3603 4cbc f336 e53c 7715 c2bc
00000150: 2e00 5b3d 4dd0 80bb 57f5 76bc 77aa e3bb
00000160: 1036 82bb 600d 483c 7eef 4c3a 14eb 24bc
00000170: d09a 203b 55a0 96bb fdd1 a93c b6da 5bbb
00000180: 4026 91ba 10fe e2bb ec86 af3b edfe 2c3b
00000190: cba9 a93c 3614 52ba 3a02 593c b95e ed3a
000001a0: fead 7f3c 0916 bf3b 33d1 893c 6e0a 0e3b
000001b0: 9499 833c 5bb5 73bb 4626 2b3c 86db 18bc
000001c0: 9412 353c 35cb 1cbb a678 d23b d526 5ebc
000001d0: 60f0 fbbb 201b 85bc b5df eabb 1cdf f0bb
0.008657505 -0.028388925 -0.06603287 0.045101043 0.0295252 0.0852963 0.15047802 0.08505144
-0.036396295 -0.06563554 -0.02187097 0.041857872 -0.020600991 -0.009885452 -0.018499393 -0.007791008
-0.0019016761 -0.0075907786 -0.055334717 0.028494647 -0.027721107 -0.038881112 0.06351149 -0.03922513
-0.009672314 -0.012752876 -0.04961199 0.023915313 -0.06534111 0.034747 -0.0029997637 0.049078792
-0.0067535406 0.02478156 0.05379321 0.06987993 -0.03404595 0.011091436 -0.04852756 0.012294873
-0.004939467 -0.008988369 -0.0025543722 0.019949667 -0.044579633 -0.12628505 -0.13309981 -0.03151662
0.109510906 0.077469066 0.019503137 -0.04426638 0.042343304 0.032913394 -0.0014722097 -0.0005171743
0.003550718 0.0527617 0.051495697 -0.011190253 -0.0026337807 0.025407368 -0.0923631 0.059968065
-0.07140413 -0.032651473 0.035328526 -0.032949153 0.09455119 -0.014475463 -0.03489872 -0.03917747
-0.010456168 0.0022473256 -0.04809936 -0.058729105 0.024202146 0.0015091022 0.034672596 -0.048259605
-0.005207442 -0.012451937 0.027980303 -0.023691876 0.05346697 -0.0039310814 -0.015073142 -0.006947811
-0.00397373 0.01221022 0.00078176695 -0.010065813 0.0024506338 -0.00459675 0.020730013 -0.003354711
-0.0011074021 -0.0069272593 0.00535666 0.0026397065 0.020710846 -0.0008013876 0.01324516 0.0018109895
0.015605448 0.005831484 0.016823387 0.0021673697 0.016064443 -0.0037186954 0.010446137 -0.009329682
0.011051793 -0.0023924832 0.006423074 -0.013559063 -0.007688567 -0.016248286 -0.0071677812 -0.0073508155
